…
 ('title AS t', '(t.production_year > 2000)'): 1367170,
 ('title AS t', '(t.production_year > 2005)'): 1006917,
 ('title AS t', '(t.production_year > 2009)'): 540578,
 ('title AS t', '(t.production_year > 2010)'): 393652,
 ('title AS t', '(t.production_year > 2014)'): 47,
 ('title AS t2', '((t2.production_year >= 2000) AND (t2.production_year <= 2010))'): 1030486}
costs stats mean 16.462356567382812 std 1.2829639911651611
Number of model parameters: 2301732 (~= 8.8MB)
SimModel(
  (tree_conv): TreeConvolution(
    (attention_merger_3): AttentionMerger(
      (softmax): Softmax(dim=0)
    )
    (query_mlp): Sequential(
      (0): Linear(in_features=46, out_features=128, bias=True)
      (1): LayerNorm((128,), eps=1e-05, elementwise_affine=True)
      (2): LeakyReLU(negative_slope=0.01)
      (3): Linear(in_features=128, out_features=64, bias=True)
      (4): LayerNorm((64,), eps=1e-05, elementwise_affine=True)
      (5): LeakyReLU(negative_slope=0.01)
      (6): Linear(in_features=64, out_features=32, bias=True)
    )
    (conv_module_list_other): ModuleList(
      (0): Sequential(
        (0): TreeConv1d(
          (weights): Conv1d(173, 512, kernel_size=(3,), stride=(3,))
        )
        (1): TreeStandardize()
        (2): TreeAct(
          (activation): LeakyReLU(negative_slope=0.01)
        )
        (3): TreeConv1d(
          (weights): Conv1d(512, 256, kernel_size=(3,), stride=(3,))
        )
        (4): TreeStandardize()
        (5): TreeAct(
          (activation): LeakyReLU(negative_slope=0.01)
        )
        (6): TreeConv1d(
          (weights): Conv1d(256, 128, kernel_size=(3,), stride=(3,))
        )
        (7): TreeStandardize()
        (8): TreeAct(
          (activation): LeakyReLU(negative_slope=0.01)
        )
        (9): TreeMaxPool()
      )
    )
    (conv_module_list_hash_join): ModuleList(
      (0): Sequential(
        (0): TreeConv1d(
          (weights): Conv1d(173, 512, kernel_size=(3,), stride=(3,))
        )
        (1): TreeStandardize()
        (2): TreeAct(
          (activation): LeakyReLU(negative_slope=0.01)
        )
        (3): TreeConv1d(
          (weights): Conv1d(512, 256, kernel_size=(3,), stride=(3,))
        )
        (4): TreeStandardize()
        (5): TreeAct(
          (activation): LeakyReLU(negative_slope=0.01)
        )
        (6): TreeConv1d(
          (weights): Conv1d(256, 128, kernel_size=(3,), stride=(3,))
        )
        (7): TreeStandardize()
        (8): TreeAct(
          (activation): LeakyReLU(negative_slope=0.01)
        )
        (9): TreeMaxPool()
      )
    )
    (conv_module_list_nested_loop_join): ModuleList(
      (0): Sequential(
        (0): TreeConv1d(
          (weights): Conv1d(173, 512, kernel_size=(3,), stride=(3,))
        )
        (1): TreeStandardize()
        (2): TreeAct(
          (activation): LeakyReLU(negative_slope=0.01)
        )
        (3): TreeConv1d(
          (weights): Conv1d(512, 256, kernel_size=(3,), stride=(3,))
        )
        (4): TreeStandardize()
        (5): TreeAct(
          (activation): LeakyReLU(negative_slope=0.01)
        )
        (6): TreeConv1d(
          (weights): Conv1d(256, 128, kernel_size=(3,), stride=(3,))
        )
        (7): TreeStandardize()
        (8): TreeAct(
          (activation): LeakyReLU(negative_slope=0.01)
        )
        (9): TreeMaxPool()
      )
    )
    (out_mlp): Sequential(
      (0): Linear(in_features=128, out_features=64, bias=True)
      (1): LayerNorm((64,), eps=1e-05, elementwise_affine=True)
      (2): LeakyReLU(negative_slope=0.01)
      (3): Linear(in_features=64, out_features=32, bias=True)
      (4): LayerNorm((32,), eps=1e-05, elementwise_affine=True)
      (5): LeakyReLU(negative_slope=0.01)
      (6): Linear(in_features=32, out_features=1, bias=True)
    )
  )
)
No best checkpoint found (run validaiton yet?); model left unchanged.
plans_lib.FilterScansOrJoins()
plans_lib.GatherUnaryFiltersInfo()
postgres.EstimateFilterRows()
305 unique filters
{('aka_name AS an', "(an.name ~~ '%a%'::text)"): 690766,
 ('cast_info AS ci', "((ci.note = '(archive footage)'::text) OR (ci.note IS NULL))"): 22040471,
 ('cast_info AS ci', "((ci.note = '(executive producer)'::text) OR (ci.note IS NULL))"): 22372469,
…
